name: "LeNet"
layer {
  name: "mnist"
  type: "Data"
  top: "data"
  top: "label"
  include {
    phase: TRAIN
  }
  transform_param {
    scale: 0.00390625
  }
  data_param {
    source: "examples/mnist/mnist_train_lmdb"
    batch_size: 64
    backend: LMDB
  }
}
layer {
  name: "mnist"
  type: "Data"
  top: "data"
  top: "label"
  include {
    phase: TEST
  }
  transform_param {
    scale: 0.00390625
  }
  data_param {
    source: "examples/mnist/mnist_test_lmdb"
    batch_size: 100
    backend: LMDB
  }
}
layer {
  name: "conv1"
  type: "BinaryConvolution"
  bottom: "data"
  top: "conv1"
  convolution_param {
    num_output: 20
    kernel_size: 3
    stride: 1
    weight_filler {
      type: "xavier"
    }
    bias_term: false
  }
  quantize_param {
    normalize_weights: true
  }
}
layer {
  name: "bn1"
  type: "BatchNorm"
  bottom: "conv1"
  top: "bn1"
}
layer {
  name: "scale1"
  type: "Scale"
  bottom: "bn1"
  top: "norm1"
  param { lr_mult: 1 }
  param { lr_mult: 2 }
  scale_param {
    filler {
      type: "xavier"
    }
    bias_filler {
      type: "constant"
      value: 0
    }
    bias_term: true
  }
}
layer {
  name: "qrelu1"
  type: "QuantReLU"
  bottom: "norm1"
  top: "Q-norm1"
  quantize_param {
    num_bit: 1
  }
}
layer {
  name: "pool1"
  type: "Pooling"
  bottom: "Q-norm1"
  top: "pool1"
  pooling_param {
    pool: MAX
    kernel_size: 2
    stride: 2
  }
}
layer {
  name: "conv2"
  type: "BinaryConvolution"
  bottom: "pool1"
  top: "conv2"
  convolution_param {
    num_output: 50
    kernel_size: 3
    stride: 1
    weight_filler {
      type: "xavier"
    }
    bias_term: false
  }
  quantize_param {
    normalize_weights: true
  }
}

layer {
  name: "bn2"
  type: "BatchNorm"
  bottom: "conv2"
  top: "bn2"
}
layer {
  name: "scale2"
  type: "Scale"
  bottom: "bn2"
  top: "norm2"
  param { lr_mult: 1 }
  param { lr_mult: 2 }
  scale_param {
    filler {
      type: "xavier"
    }
    bias_filler {
      type: "constant"
      value: 0.1
    }
    bias_term: true
  }
}
layer {
  name: "qrelu2"
  type: "QuantReLU"
  bottom: "norm2"
  top: "Q-norm2"
  quantize_param {
    num_bit: 1
  }
}
layer {
  name: "pool2"
  type: "Pooling"
  bottom: "Q-norm2"
  top: "pool2"
  pooling_param {
    pool: MAX
    kernel_size: 2
    stride: 2
  }
}
layer {
  name: "ip1"
  type: "BinaryInnerProduct"
  bottom: "pool2"
  top: "b_ip1"
  param {
    lr_mult: 1
  }
  param {
    lr_mult: 2
  }
  inner_product_param {
    num_output: 500
    weight_filler {
      type: "xavier"
    }
    bias_filler {
      type: "constant"
    }
  }
}
layer {
  name: "relu1"
  type: "QuantReLU"
  bottom: "b_ip1"
  top: "Q-b_ip1"
}
layer {
  name: "ip2"
  type: "BinaryInnerProduct"
  bottom: "Q-b_ip1"
  top: "b_ip2"
  param {
    lr_mult: 1
  }
  param {
    lr_mult: 2
  }
  inner_product_param {
    num_output: 10
    weight_filler {
      type: "xavier"
    }
    bias_filler {
      type: "constant"
    }
  }
}
layer {
  name: "accuracy"
  type: "Accuracy"
  bottom: "b_ip2"
  bottom: "label"
  top: "accuracy"
  include {
    phase: TEST
  }
}
layer {
  name: "loss"
  type: "SoftmaxWithLoss"
  bottom: "b_ip2"
  bottom: "label"
  top: "loss"
}
